X_train shape: (5000, 3, 224, 224)
5000 train samples
1500 test samples
y_train shape: (5000, 5)
y_test shape: (1500, 5)
____________________________________________________________________________________________________
Layer (type)                     Output Shape          Param #     Connected to                     
====================================================================================================
convolution2d_1 (Convolution2D)  (None, 40, 224, 224)  5920        convolution2d_input_1[0][0]      
____________________________________________________________________________________________________
activation_1 (Activation)        (None, 40, 224, 224)  0           convolution2d_1[0][0]            
____________________________________________________________________________________________________
averagepooling2d_1 (AveragePoolin(None, 40, 112, 112)  0           activation_1[0][0]               
____________________________________________________________________________________________________
convolution2d_2 (Convolution2D)  (None, 40, 112, 112)  40040       averagepooling2d_1[0][0]         
____________________________________________________________________________________________________
activation_2 (Activation)        (None, 40, 112, 112)  0           convolution2d_2[0][0]            
____________________________________________________________________________________________________
averagepooling2d_2 (AveragePoolin(None, 40, 56, 56)    0           activation_2[0][0]               
____________________________________________________________________________________________________
permute_1 (Permute)              (None, 56, 40, 56)    0           averagepooling2d_2[0][0]         
____________________________________________________________________________________________________
reshape_1 (Reshape)              (None, 56, 2240)      0           permute_1[0][0]                  
____________________________________________________________________________________________________
lstm_1 (LSTM)                    (None, 56, 128)       1212928     reshape_1[0][0]                  
____________________________________________________________________________________________________
lstm_2 (LSTM)                    (None, 128)           131584      lstm_1[0][0]                     
____________________________________________________________________________________________________
dense_1 (Dense)                  (None, 5)             645         lstm_2[0][0]                     
____________________________________________________________________________________________________
activation_3 (Activation)        (None, 5)             0           dense_1[0][0]                    
====================================================================================================
Total params: 1391117
____________________________________________________________________________________________________
Train on 5000 samples, validate on 1500 samples
Epoch 1/500
Epoch 00000: val_acc improved from -inf to 0.27267, saving model to /home/xcat/experiment/ImageNet/model/5-class-average-tanh5
…
