X_train shape: (2000, 3, 224, 224)
2000 train samples
600 test samples
y_train shape: (2000, 2)
y_test shape: (600, 2)
____________________________________________________________________________________________________
Layer (type)                     Output Shape          Param #     Connected to                     
====================================================================================================
convolution2d_1 (Convolution2D)  (None, 40, 224, 224)  5920        convolution2d_input_1[0][0]      
____________________________________________________________________________________________________
activation_1 (Activation)        (None, 40, 224, 224)  0           convolution2d_1[0][0]            
____________________________________________________________________________________________________
maxpooling2d_1 (MaxPooling2D)    (None, 40, 112, 112)  0           activation_1[0][0]               
____________________________________________________________________________________________________
convolution2d_2 (Convolution2D)  (None, 40, 112, 112)  40040       maxpooling2d_1[0][0]             
____________________________________________________________________________________________________
activation_2 (Activation)        (None, 40, 112, 112)  0           convolution2d_2[0][0]            
____________________________________________________________________________________________________
maxpooling2d_2 (MaxPooling2D)    (None, 40, 56, 56)    0           activation_2[0][0]               
____________________________________________________________________________________________________
permute_1 (Permute)              (None, 56, 40, 56)    0           maxpooling2d_2[0][0]             
____________________________________________________________________________________________________
reshape_1 (Reshape)              (None, 56, 2240)      0           permute_1[0][0]                  
____________________________________________________________________________________________________
lstm_1 (LSTM)                    (None, 56, 128)       1212928     reshape_1[0][0]                  
____________________________________________________________________________________________________
lstm_2 (LSTM)                    (None, 128)           131584      lstm_1[0][0]                     
____________________________________________________________________________________________________
dense_1 (Dense)                  (None, 2)             258         lstm_2[0][0]                     
____________________________________________________________________________________________________
activation_3 (Activation)        (None, 2)             0           dense_1[0][0]                    
====================================================================================================
Total params: 1390730
____________________________________________________________________________________________________
Train on 2000 samples, validate on 600 samples
Epoch 1/500
Epoch 00000: val_acc improved from -inf to 0.50500, saving model to /home/xcat/experiment/ImageNet/model/image-methodh5
…
