max: 863.779
X_train shape: (224, 1, 200, 118)
224 train samples
56 test samples
y_train shape: (224, 2)
y_test shape: (56, 2)
____________________________________________________________________________________________________
Layer (type)                     Output Shape          Param #     Connected to                     
====================================================================================================
convolution2d_1 (Convolution2D)  (None, 32, 200, 118)  192         convolution2d_input_1[0][0]      
____________________________________________________________________________________________________
activation_1 (Activation)        (None, 32, 200, 118)  0           convolution2d_1[0][0]            
____________________________________________________________________________________________________
averagepooling2d_1 (AveragePoolin(None, 32, 100, 118)  0           activation_1[0][0]               
____________________________________________________________________________________________________
convolution2d_2 (Convolution2D)  (None, 64, 100, 118)  6208        averagepooling2d_1[0][0]         
____________________________________________________________________________________________________
activation_2 (Activation)        (None, 64, 100, 118)  0           convolution2d_2[0][0]            
____________________________________________________________________________________________________
averagepooling2d_2 (AveragePoolin(None, 64, 50, 118)   0           activation_2[0][0]               
____________________________________________________________________________________________________
permute_1 (Permute)              (None, 50, 64, 118)   0           averagepooling2d_2[0][0]         
____________________________________________________________________________________________________
reshape_1 (Reshape)              (None, 50, 7552)      0           permute_1[0][0]                  
____________________________________________________________________________________________________
lstm_1 (LSTM)                    (None, 50, 128)       3932672     reshape_1[0][0]                  
____________________________________________________________________________________________________
lstm_2 (LSTM)                    (None, 50, 128)       131584      lstm_1[0][0]                     
____________________________________________________________________________________________________
flatten_1 (Flatten)              (None, 6400)          0           lstm_2[0][0]                     
____________________________________________________________________________________________________
dense_1 (Dense)                  (None, 2)             12802       flatten_1[0][0]                  
____________________________________________________________________________________________________
activation_3 (Activation)        (None, 2)             0           dense_1[0][0]                    
====================================================================================================
Total params: 4083458
____________________________________________________________________________________________________
Train on 224 samples, validate on 56 samples
Epoch 1/500
Epoch 00000: val_acc improved from -inf to 0.46429, saving model to /media/kong/9A8821088820E48B/Xcat/experiment/BCI2005IVa/model/2LSTM_true_average_tanh.h5
…
