____________________________________________________________________________________________________
Layer (type)                     Output Shape          Param #     Connected to                     
====================================================================================================
convolution2d_1 (Convolution2D)  (None, 8, 59, 59)     208         convolution2d_input_1[0][0]      
____________________________________________________________________________________________________
activation_1 (Activation)        (None, 8, 59, 59)     0           convolution2d_1[0][0]            
____________________________________________________________________________________________________
maxpooling2d_1 (MaxPooling2D)    (None, 8, 29, 29)     0           activation_1[0][0]               
____________________________________________________________________________________________________
convolution2d_2 (Convolution2D)  (None, 16, 29, 29)    1168        maxpooling2d_1[0][0]             
____________________________________________________________________________________________________
activation_2 (Activation)        (None, 16, 29, 29)    0           convolution2d_2[0][0]            
____________________________________________________________________________________________________
maxpooling2d_2 (MaxPooling2D)    (None, 16, 14, 14)    0           activation_2[0][0]               
____________________________________________________________________________________________________
flatten_1 (Flatten)              (None, 3136)          0           maxpooling2d_2[0][0]             
____________________________________________________________________________________________________
dense_1 (Dense)                  (None, 2)             6274        flatten_1[0][0]                  
____________________________________________________________________________________________________
activation_3 (Activation)        (None, 2)             0           dense_1[0][0]                    
====================================================================================================
Total params: 7650
____________________________________________________________________________________________________
Train on 160 samples, validate on 40 samples
0s - loss: 0.7063 - acc: 0.5188 - val_loss: 0.7612 - val_acc: 0.4250
0s - loss: 0.7171 - acc: 0.4562 - val_loss: 0.6847 - val_acc: 0.5750
…
